model/credit_card_fraud_detec.pt (torch, 10759 bytes, 9 tensors)

linear_relu_stack.0.weight f4 [16, 31]
00000000: dced 8ebc 7b08 553e 7261 53be 5f93 b9bd
00000010: 2997 cfbb 32ba 0c3d 09c1 813d 0a50 8a3d
00000020: eb80 b6bd 62ec c83c 7fdc 0fbe a0ed 153e
00000030: a720 28be b4df d13d 58b3 ed3b b31d f23d
00000040: 39f1 5d3e a387 113e 7751 a4bd 2261 6a3e
00000050: f73f 33be 5338 1a3d 1d71 c73b 7c8d 313e
00000060: 91d2 ccbc 210d f73c 941d 323e fd44 15be
00000070: 0e67 5bbd 35a8 afbe 9712 d6be 5775 223e
00000080: 14c0 98bc 0c82 593e 79a5 66be 3dca 55bd
00000090: 8e73 933e ece9 ebbb 1196 973d 94b2 d5bd
000000a0: 2b34 b03e 7ffc 7ebd 1543 b5bd add7 0dbe
000000b0: 06f2 d13c e84b 7c3d e6c6 b43d c5b8 27bc
000000c0: 39d7 4b3c 3c46 ce3d 05e4 263d d72b ec3d
000000d0: 2658 c8bd 0678 47bd d2b2 d33b 30bd 2fbd
000000e0: 67e6 c4bd fea6 b63d 4e08 27be c5c5 d5bc
000000f0: 6bf5 71be 0779 10be f6dd 4ebd 67ad 8a3d
00000100: 08fd 90bb a881 e2bd 8dd9 b13d 6c2e 873e
00000110: e1f5 febb 8ea7 963e 1061 4e3e 6da4 2a3e
00000120: b52f 69be 8ca2 4b3b 00a9 c5bd 5429 2c3e
00000130: f60e bf3c 38fb ec3a 8acf 92bd 7361 38bd
00000140: 9970 2fbe 81ec e93d 2ee8 bcbc 3159 4dbb
00000150: 1cce c63c ceb6 ee3d 9412 6c3c 1646 7f3d
00000160: 2e02 243d 67cb 2c3e ab64 193d 9b43 a0be
00000170: 7585 03be 19bc ddbd dbb8 0cbe 93ac 3a3e
00000180: 5b7d 41be 1b04 8c3d 0a48 833c 1a2a 15bd
00000190: 8527 10bd ae9b 7fbe c211 7e3d 0ce1 06be
000001a0: a276 863d 108d a4bd 7bda e83d 8093 94bd
000001b0: e30c 093e 9af3 17bd a6d3 b5bc cc2d c3bd
000001c0: e752 243e fe37 0a3c c26e 12be 2935 79bc
000001d0: 08b7 643e be85 f23d ed8f 833e fc1c 62bd
000001e0: 4ffb 0fbe 426c 36bc dd46 79bd 35f8 aebe
000001f0: eb4c 3a3e 4e75 06be 502b 52bb ed32 08be
00000200: f7f7 dc3d 7865 56be f34b 7abd f088 333d
00000210: 3f1b 973d d22a 0cbe 6bbd a43c d53b 01be
00000220: d53e 82bd 99fb 3abd 2bcc a23d 8f6a 213e
00000230: 137e fbbd e704 84be d2e9 153c 97b9 0e3e
00000240: 4e66 40be b76b 9cbe fc10 b0bc 28b6 363e
00000250: 0c41 133d eb5a bc3e a574 7f3b ccbf acbc
00000260: e86f 7f3d e725 a03d 7bd7 a5bc 94b9 243e
00000270: 8fae 59bd e20e 0bbd 4342 edbd 7a43 e6bc
00000280: 369e 5d3c ea36 3a3e 8b1e f0bd b4e9 56bc
00000290: 9472 523e 9835 883d 2545 7d3d 303a 173e
000002a0: 1e79 8fbd 98d1 033e 14f3 b1bd f45e 363e
000002b0: da15 adbd 6290 8dbd 6cf7 8c3e d975 07bd
000002c0: 0473 0ebe 49a9 603d 9ad2 efbd 574e 5abe
000002d0: 8682 d0bc 10b2 da3c e0a9 fdbd 8887 ecbd
000002e0: e49f 98bb 418b 8abe 1601 4ebd 9e58 a4bd
000002f0: 760f 53be 1bd8 203e 90d9 b23d fd12 6fbe
00000300: 0128 1abd 6793 cc3d 231e 903d 7cc4 53bd
00000310: a90a 933c 4510 44be a72e 0abe eb77 79be
00000320: a9a9 8c3d b384 a2bc e784 f63d c655 22be
00000330: 151c 46bd 47b3 353d 4289 cf3d 27b6 46bd
00000340: e40c 813d 0ffb 15bd 2e5a 1d3d 2f89 2b3e
00000350: 3efc 1d3e 42d2 6e3e 4984 213d 7d17 d43e
00000360: b0fc 9d3e 1bd5 2a3c d265 f03c 78af 2a3e
00000370: 8ab7 69bd 56e9 a93d 5aa1 153d f3d0 2d3d
00000380: 76ef 56bd 43e2 59be 8b6f 613d dea3 e73d
00000390: 3854 223e 6eaa 84bd 8d88 57be bff2 c03d
000003a0: 6643 80be cceb d5bd 8114 17be 9616 b63d
000003b0: c1f2 4e3e c19e 753c 0ad4 9abe 1ee1 9cbd
000003c0: 5c48 0a3d b104 863d 162b 3b3c fbfd 7a3e
000003d0: b5cd 8e3c b577 6d3d acb3 ccbe 1698 07bf
000003e0: 89bd 2c3e bd05 e6bd 8d98 573d 34e1 5bbe
000003f0: 4d20 95bd 07da fd3c bc18 f2bc 912f 18be
-0.017447405 0.20804016 -0.20642641 -0.09061312 -0.0063351584 0.034357257 0.06335647 0.067535475
-0.08911308 0.024526779 -0.14048956 0.14641428 -0.16418706 0.10247746 0.0072540455 0.11822071
0.2167405 0.14211898 -0.08023351 0.22888616 -0.1750487 0.03765137 0.006086482 0.17339128
-0.02500275 0.030157628 0.17394096 -0.14577098 -0.053565077 -0.3430802 -0.41811058 0.15865074
-0.018646277 0.21241015 -0.2252406 -0.052194823 0.287991 -0.0071995165 0.0740167 -0.10434452
0.344148 -0.062252518 -0.088506855 -0.13851805 0.025628101 0.061595827 0.08826999 -0.010236924
0.01244145 0.1007199 0.0407448 0.11531799 -0.09782438 -0.048698448 0.006460526 -0.042905033
-0.09614258 0.0891857 -0.16311762 -0.02609528 -0.23628776 -0.14108668 -0.050504647 0.06771355
-0.004424695 -0.11059886 0.08684073 0.26402605 -0.007780776 0.2942471 0.20154214 0.16664286
-0.22772105 0.0031072227 -0.09651375 0.1681264 0.023322564 0.001808024 -0.07168491 -0.04501481
-0.17132796 0.11422063 -0.02305993 -0.003133368 0.024268202 0.11655961 0.014408726 0.0623227
0.04004114 0.16874467 0.03744952 -0.3130158 -0.12843879 -0.108268924 -0.13742392 0.18229894
-0.18895476 0.068367206 0.016025562 -0.036417104 -0.03519394 -0.24961731 0.062028654 -0.13171786
0.06565596 -0.08034718 0.11369797 -0.07254696 0.13383822 -0.03709755 -0.022195648 -0.095302194
0.1604725 0.008436201 -0.14300063 -0.015210428 0.22335446 0.118419155 0.25695744 -0.055203423
-0.1406071 -0.011134209 -0.060858596 -0.34173742 0.18193404 -0.13130686 -0.0032069273 -0.13300677
0.10789483 -0.20937145 -0.061107587 0.043831766 0.07378244 -0.1368821 0.020109853 -0.1262048
-0.063596405 -0.0456501 0.07949098 0.15763305 -0.12279906 -0.2578499 0.009149985 0.13937984
-0.18789026 -0.3055093 -0.021492474 0.17842925 0.035950705 0.36788115 0.0038979438 -0.02108755
0.06236258 0.07819729 -0.02024435 0.16086417 -0.053144988 -0.03394974 -0.11584904 -0.028108347
0.01352649 0.1818501 -0.117245756 -0.013117243 0.2055152 0.06650847 0.06183352 0.1476829
-0.07005523 0.12872922 -0.086889416 0.17809659 -0.084514335 -0.069123045 0.27532518 -0.033071373
-0.13911062 0.054848943 -0.11710091 -0.21318947 -0.025452863 0.026696235 -0.12385917 -0.11549288
-0.0046577323 -0.27059367 -0.050294004 -0.08024715 -0.20611367 0.15707438 0.08732903 -0.23347087
-0.037635807 0.09989052 0.07036998 -0.051701054 0.01794942 -0.19146831 -0.13494359 -0.24362151
0.068682976 -0.019838667 0.12037068 -0.15853032 -0.048366625 0.044360425 0.10133602 -0.048513558
0.06301287 -0.03661638 0.03841608 0.1675155 0.15428254 0.23322394 0.039432798 0.4142417
0.30856848 0.010426785 0.029345427 0.16668499 -0.057059802 0.082964584 0.03653083 0.042435598
-0.05247446 -0.21277718 0.055038016 0.11310552 0.1585244 -0.064778194 -0.21048184 0.094213
-0.2505142 -0.10445365 -0.14753915 0.08891027 0.20209791 0.014991463 -0.30239898 -0.07660125
0.033760414 0.065438636 0.011423847 0.24510948 0.017432073 0.05797549 -0.3998083 -0.5296644
0.16869177 -0.11231563 0.052635718 -0.21472627 -0.072815515 0.030987753 -0.02955281 -0.14861895

linear_relu_stack.0.bias f4 [16]
00000000: 0d0a bdbd 9514 123d e686 5d3c 809d 653d
00000010: 4e3b 433e c7f7 cd3d 1bfe 6b3e ac3b b9bd
00000020: a66e c7bd 881f 103e d406 a93e aeab 613e
00000030: 2b3f 6a3c 2b78 e73d be33 d33c 338d a83e
-0.09230433 0.03566416 0.013520932 0.056058407 0.19065592 0.100570254 0.23046152 -0.09044585
-0.097379014 0.14074528 0.33013022 0.22038147 0.014297287 0.11302217 0.025781509 0.32920226

linear_relu_stack.2.weight f4 [18, 16]
00000000: 436b 753d 71bc 25be 6749 55be 0bc8 32be
00000010: d629 dbbc 86e6 c8bc 3fb4 10be 6ba0 8abd
00000020: 35da ac3b fc4e b5bc 3abc 553e 4bae 66be
00000030: 4225 7dbd eeb0 243b 0cd4 953e d5dd 7dbe
00000040: 1cdb d8bd 7584 353d 920e f7bd 60c2 1bbe
00000050: 4dd6 b93d 60e4 c0bc fb9d aa3e bf4f aabe
00000060: 2e16 2cbe fc81 633d 94f9 ce3e f000 7c3e
00000070: cc85 603c 4c8d 7dbc 2429 8e3e a12d 9e3e
00000080: b15a 773e 2487 dabd f511 7b3d 08ba 78bd
00000090: 6c39 433e 5a2c 06be 473d 6dbe 95bc ba3e
000000a0: 8629 fb3d 3e73 f23d 1cfd 423d ec9a 42bd
000000b0: ccbd 4b3d 002e 993c 753d f7bc 4c99 38bd
000000c0: 444b d73e 2f7d 8d3e 00ec 163e f164 983e
000000d0: e22d 2f3e cc09 8a3e 48f7 11be 79da 1f3e
000000e0: 7a2f 8c3e 7905 5b3e eaa6 17be 5682 083e
000000f0: 7e85 8dbc 97ac 493e 2d29 11bc a4e5 65be
00000100: ebbc f0bd 0ebb b4bd b022 3d3e dbea b6bd
00000110: 72e5 3d3d 8553 25be 98f6 813e c8a4 81be
00000120: 72ab 153e 6b3b e93d 8ccd 37bd 82c0 bd3e
00000130: c61d 47bc 9952 113e 6265 9c3e c42a ef3d
00000140: 47de b83e 25f3 27be 4526 833e 976c 813e
00000150: 4fe8 ff3d b229 7b3e 73ff a1bd f602 a83e
00000160: 6c1c 863e 0e63 a73e 8c39 6abd e819 b43c
00000170: d1e6 b03d 349a 1d3e 0c6a c63d 86ca 8abe
00000180: 5958 97bc 938d bd3e 8891 823e e21b e93d
00000190: 2ed5 0abc d54c 3f3c 3241 123e dbfa ba3e
000001a0: 68f1 f33d eef7 b83e 5318 fe3d afe1 c6bd
000001b0: 57d4 133e cdaa 6e3e 7c73 583d ef10 4e3e
000001c0: d0ce aabe 8d33 0cbe e965 1e3e 63c4 9f3d
000001d0: f852 753e 2195 903d d82a b23e f26b 54be
000001e0: c9f6 febd 02d3 17be 7f0d 9d3e aacf 993d
000001f0: 35b2 273e d80c 533e 3444 0f3e a2d6 d9bc
00000200: 58d4 393e 7dc5 9a3e e883 923e 9aa9 813d
00000210: fbaf 413e 1578 21bd a2fc 93be d4b8 aa3e
00000220: 2342 9e3e e819 b53e 2bba 93bd eb05 13be
00000230: 6e32 323e 662e e5bc b105 0c3e b901 11bd
00000240: 1089 043f 2ac2 2abc 1916 29bd 7cb8 a73e
00000250: f0c1 183e f0f8 9d3e 9af7 8cbd ac4c 853e
00000260: c6d6 003e 9d89 ad3e 36e6 09be 4de1 9abc
00000270: bfb0 d33e 38ca 1e3e 8f2a 24bd 3125 99bd
00000280: de74 c03e 6871 963e add6 b23e cdfd a83d
00000290: 3d4f 0dbd 892f 0b3d 2ba4 e2bd c3d9 773e
000002a0: b691 973e c0a8 913e 9054 f93b ea05 ecbd
000002b0: b2d8 cd3d 4f1c f33d 8b37 b8bd aef5 e73d
000002c0: 3b10 aabe dbc7 d2bd 7788 07be 841d b4bd
000002d0: 48bd f43d 76a8 753e 890f f13d 6a77 a3be
000002e0: eb2a 483e a19c a6bd 3899 873e 4837 0d3d
000002f0: 44e9 a83c 702d 95bd 2d7d 8b3e 9abf de3e
00000300: cc66 92bb 1820 443c c11b 323e b7a0 313e
00000310: bc6e 833e e337 98bd dfcb 9dbe 7c51 113d
00000320: eb99 5e3e edf8 0e3e 842b 99bd 7690 bcbd
00000330: 2f9d 313e f516 32be 7d00 99be 5e07 8fbc
00000340: d6a3 b4be e720 113e 3452 cfbd f5ea b7bb
00000350: 87bb 2d3c 8c9c 83bd e243 42bc 3227 8bbe
00000360: be06 12be 89f7 243e 516b 9d3e bccd 843c
00000370: 8c0e 823e b620 fe3d 16e5 a53e 842f 33bc
00000380: 064e 943d fc49 2d3e 2583 b43d 9d09 2d3e
00000390: a4a5 1fbd ff66 8c3e f527 a8bd 0327 c13e
000003a0: 5ccb b9bd 2b6d 713e a303 9b3d 769d 66bd
000003b0: 4b8a be3e 68c4 643d 1124 9dbd 8a74 9c3d
000003c0: 72a6 85be e6e2 19be d425 2fbe d37c 833d
000003d0: 29a0 603e a9ec 903e 7edd 7c3e 3622 b2be
000003e0: 2d94 d23c 896a 43bd 1a7d bb3d a423 373d
000003f0: d546 563e 9c88 b33d 8555 6d3e f79e c03e
0.059916746 -0.16185166 -0.20828782 -0.17459123 -0.026753347 -0.024523985 -0.14131258 -0.067688785
0.0052750357 -0.02213239 0.20872584 -0.22527425 -0.06180311 0.0025129872 0.2926334 -0.24791653
-0.10588667 0.044315774 -0.12063326 -0.15210867 0.09074078 -0.023546398 0.33323655 -0.33263966
-0.16805336 0.055543885 0.40424788 0.24609733 0.013703775 -0.015475582 0.27765763 0.30894187
0.2415569 -0.10670307 0.061296422 -0.06072429 0.19064873 -0.13102856 -0.23167907 0.36472002
0.12263779 0.11838387 0.047604665 -0.047511026 0.04974155 0.018698692 -0.030180672 -0.04506807
0.4204961 0.2763457 0.14738464 0.29764512 0.17107347 0.269606 -0.14254487 0.15610684
0.27379972 0.21388806 -0.14809766 0.13330969 -0.017275568 0.19694744 -0.008859915 -0.22450882
-0.11754783 -0.0882474 0.18470263 -0.08931514 0.046361394 -0.16145141 0.2538345 -0.2532103
0.14616182 0.11388286 -0.04487376 0.37060934 -0.012153095 0.14191665 0.305461 0.11678079
0.36107084 -0.16401346 0.25615135 0.2527816 0.12495481 0.24527624 -0.07910051 0.3281476
0.2619356 0.3269276 -0.057183787 0.02198501 0.08637775 0.15390855 0.096881956 -0.27107638
-0.018474745 0.37022075 0.25501657 0.11382271 -0.008473678 0.011676033 0.14282683 0.36519513
0.11911279 0.36126655 0.12406983 -0.097110145 0.1443647 0.23307343 0.05284451 0.20123647
-0.3336091 -0.1369154 0.15468563 0.0780113 0.23957431 0.07059694 0.34798312 -0.20744303
-0.12449414 -0.14826587 0.3067436 0.07510312 0.16376574 0.20610368 0.13990861 -0.026591603
0.18147409 0.30228797 0.2861626 0.06331177 0.18914787 -0.03942116 -0.2890368 0.33344138
0.30909833 0.35371327 -0.07213243 -0.14357726 0.1740205 -0.027976226 0.13674046 -0.035402033
0.5177164 -0.010422269 -0.04128084 0.32757938 0.14917731 0.30853987 -0.06883164 0.26035058
0.1258193 0.33894053 -0.13466725 -0.01890626 0.41345784 0.15506828 -0.04007965 -0.07477797
0.37589163 0.29383397 0.3492941 0.08251534 -0.034499396 0.03398088 -0.11066469 0.24204163
0.29603356 0.2844906 0.0076089576 -0.115245655 0.10051097 0.11870634 -0.08994969 0.113261566
-0.33215508 -0.10292026 -0.13235651 -0.08794692 0.11950165 0.23990044 0.11770541 -0.31927043
0.19547622 -0.08135343 0.26484084 0.03447655 0.020619042 -0.07284057 0.2724394 0.43505555
-0.0044678207 0.011970542 0.173934 0.17346464 0.2567042 -0.074325345 -0.30819604 0.0354781
0.21738403 0.13962145 -0.07479003 -0.09207241 0.17345117 -0.1739157 -0.29883185 -0.017459568
-0.35281247 0.14172707 -0.10123101 -0.005612726 0.010603792 -0.06426343 -0.011857005 -0.2717834
-0.14260384 0.16110052 0.30745938 0.016211383 0.25401723 0.12408583 0.3240134 -0.010936622
0.07241444 0.16922754 0.08814076 0.16898198 -0.038976327 0.2742233 -0.08210746 0.37725076
-0.09071991 0.235768 0.07569053 -0.05630251 0.37214884 0.05585137 -0.07672895 0.076394156
-0.2610355 -0.15027961 -0.17104274 0.06420293 0.21936096 0.28305557 0.24693868 -0.34791726
0.025705421 -0.04770902 0.091547206 0.044711724 0.20925458 0.087662905 0.23177154 0.3762128

linear_relu_stack.2.bias f4 [18]
00000000: 30e6 3bbe b36a a73e 8565 2c3e 2c45 21be
00000010: e349 953e 69d0 d6bc a826 aa3e bdce d03a
00000020: 8b7a 5dbe 3343 40be 03b3 37be cf75 d23e
00000030: 9788 a03d f1df 073e beed 813c 900e aa3e
00000040: 8787 343d ed33 2d3e
-0.18349528 0.32698593 0.16835602 -0.15749043 0.29157934 -0.026222425 0.33232617 0.0015930753
-0.21628778 -0.18775634 -0.17939381 0.41105506 0.078385524 0.1326902 0.015860435 0.33214235
0.04407456 0.1691434

linear_relu_stack.4.weight f4 [20, 18]
00000000: 46dd 87be 7ad2 ac3d 06df 5f3e cab7 813e
00000010: ea40 cebd d86c 1e3e ccc6 573e 6a61 6ebd
00000020: 23c2 003e cbc2 df3d cad8 4e3e 0bb9 34be
00000030: ba72 97bd 97c7 61be f1a6 f63d 2e33 46be
00000040: 95db 0fbe 8e2e d73d 8ec6 a3bd b0c3 edbb
00000050: 8dea 7cbe d5b9 e7bd a806 443e 6d4f 6fbc
00000060: 8ac7 fb3d efb1 bc3e 9eed 45be 08fe 7fbc
00000070: 557b c7bd 0be1 903e b116 233d 3722 b23e
00000080: 9f25 b7bc e692 643e b91f 39be c7b4 00be
00000090: 5139 6c3d 3d85 6dbe 1c29 743e 458b 3a3e
000000a0: 26ec 0abe 4dc6 793e 883b 18bd f8bb 43be
000000b0: 80dd 9e3e 5bbb a13e 7f31 7a3e bc8f 08be
000000c0: 5e3c cf3d 7ede fdbc ca1a 843d 20ec 26be
000000d0: ac7d bbbd f766 3cbd 8302 693c 106e 07be
000000e0: 40d6 09bd d4d8 6ebe ee5c 09bb 25df 903c
000000f0: 582f 81be 9602 82be 9df1 23be 4857 0d3e
00000100: fa99 1fbe d420 99bd 7fdf 3ebe ba73 173e
00000110: 77b1 0fbe 4544 53be 5d5b 2ebe b327 763d
00000120: 9589 5e3d 9dbc c23e 5972 60bd d662 133d
00000130: 2a8e 913e 00f6 f8bd 22f4 af3d cf77 373e
00000140: e64a 68be 4396 7bbe 466c 24bd 20b8 9d3e
00000150: 1dea 09be 78a1 5a3e 66fb 373e 4936 863d
00000160: a6ff dabd f69a 963e 8a0a 553e e3d5 ab3e
00000170: 6a42 3ebe 4807 983b 6e3b 813e d4e3 ed3d
00000180: bdce 5a3e e2cc 3e3d 90f5 263e 2575 d3bc
00000190: 58d1 833e ada9 f93c 0f21 96bd 30ac 993e
000001a0: fb8a 6f3e ad38 febc 8dde 913e 6ab4 16be
000001b0: c1f4 f53c a3e9 95be e4e1 193e aa46 6b3e
000001c0: 8aab 073d 51d8 803e 0907 cc3d 3987 aabd
000001d0: cfec 433b 769a 653e 1570 c03d 967e 0ebe
000001e0: c492 f13d 846a a0bc 38fc bc3e 3dbf 0cbd
000001f0: efd5 b43d f478 ae3e 84db 0bbe d845 4abd
00000200: 296e 323e 48c5 bf3e 38fa 7fbe 3ed7 e83c
00000210: b456 093e 6ddd 47be 8adb cc3e a6a7 883d
00000220: 1766 743e a487 86bd ad0c 403e f63c 56bc
00000230: c301 c53d 3109 b1be 3ae1 0b3e c570 0dbb
00000240: 0201 933e e6de 443d 8446 13be 0ca4 bdbd
00000250: a69e 5d3e 939d 15be b127 713e 32ea 8c3e
00000260: 2112 37be 3aad 6ebe 32ae f5bd f488 7a3e
00000270: 711c 893e 9c2b 813e eebb 9b3d d670 513e
00000280: 7ba2 773d 2c12 94ba 32bd 193e 5f2c 4e3e
00000290: aab7 053d 31ae fb3d a6ea 7c3e 5117 88be
000002a0: 6fd8 9c3e f88d 523e 6d4e 24be 9424 96be
000002b0: 62bb 523d 6c2c 403d 72b0 38bd 70f5 8a3e
000002c0: dd92 02be 5f7b 9f3d f7cc 7f3e 5004 473e
000002d0: 30ad cebd bd0f 023c b0b5 cf3d 1ea2 aa3e
000002e0: ee3f e5bd 6680 853d c309 04be c450 863e
000002f0: 1604 c13e 50d1 983e 5024 3a3e a87c 4cbd
00000300: deff ad3d 61fd f0bc f50c 5f3e ea8a 4cbe
00000310: c2d1 133d ce7f c7bd 6fde 2bbe a0e6 21bd
00000320: aea9 66bb 91cc c43d 8a08 a2bd 76ae 983e
00000330: c30c b63e fffc 0fbc 9f64 303e aeb1 973e
00000340: ff76 023e 769f 89be b94f bf3e a4ec 2e3d
00000350: 6cd4 a13e 0e12 aa3d 2c26 143e 57e6 553e
00000360: 3001 05be f612 babc 42fa a43e 484e eb3d
00000370: b197 b4bd 5bf5 473e 00fa 133e f37a 533e
00000380: fb28 303e e1a5 4b3d 31a0 7a3e d8d4 833d
00000390: e19a d43d f717 d93d 7c56 cbbd e0de 0dbe
000003a0: 8a6c 08be b15f 723c 0d2b 21bd bf85 fbbc
000003b0: f00c 94bd ee16 53bd 3478 23be 924c c33d
000003c0: 375d 0b3e b4b8 5dbe 1451 603e 2fc5 a63e
000003d0: 5375 df3e d42e 6e3d 9be0 603e 0d4a 49be
000003e0: fba2 cd3d 8836 4ebe 0683 51be b2fa 49be
000003f0: c879 883e 6efd 783e d332 343d 8e6e 23be
-0.26536006 0.08438583 0.2186242 0.25335532 -0.10070975 0.15471208 0.21071929 -0.05819837
0.12574057 0.10925826 0.20199886 -0.17648713 -0.07394929 -0.22048794 0.1204356 -0.19355461
-0.14048608 0.105069265 -0.07996856 -0.007255994 -0.24698849 -0.113147415 0.19143164 -0.014606339
0.122939184 0.36854503 -0.19328925 -0.015624531 -0.097403206 0.28296694 0.039816562 0.3479173
-0.022356806 0.22321662 -0.18078507 -0.12568961 0.05767185 -0.23195358 0.23843807 0.1821719
-0.13566646 0.24392052 -0.03716615 -0.19114673 0.31028366 0.31588253 0.24432944 -0.1333608
0.10118936 -0.030989882 0.06450422 -0.16301012 -0.091548294 -0.045996632 0.01422179 -0.1322558
-0.03365159 -0.23324901 -0.0020959931 0.017684529 -0.25231433 -0.25392598 -0.16010137 0.13802826
-0.15586081 -0.074769646 -0.18639944 0.1479024 -0.14032541 -0.20631512 -0.1702704 0.060096454
0.054330427 0.38034526 -0.05479655 0.03598293 0.28428775 -0.12156296 0.085914865 0.17916797
-0.22684821 -0.24569039 -0.04014232 0.3080454 -0.13468213 0.21350658 0.17966995 0.06553323
-0.10693292 0.294151 0.20804802 0.3356162 -0.18580022 0.00463954 0.25240654 0.116157204
0.21367927 0.04658211 0.16304612 -0.025812695 0.25745654 0.030476416 -0.07330524 0.3001418
0.2339286 -0.031032884 0.28490105 -0.1471726 0.030023934 -0.29279813 0.15027577 0.22976175
0.033122577 0.25165036 0.09962279 -0.08326573 0.0029895788 0.22422203 0.09396378 -0.13915476
0.117955714 -0.01958204 0.36911178 -0.034362067 0.08829867 0.34076655 -0.13657957 -0.049383014
0.17424835 0.374552 -0.24997795 0.028422948 0.13411981 -0.19518061 0.40011245 0.066726014
0.23867069 -0.0656884 0.18754835 -0.013076058 0.09619477 -0.34577325 0.13660136 -0.0021582108
0.28711706 0.048064135 -0.14382368 -0.09259805 0.21642551 -0.14610891 0.23550297 0.27522427
-0.1787801 -0.23308268 -0.11996116 0.24466306 0.26779512 0.25228584 0.07604204 0.204532
0.060457688 -0.001129692 0.15013579 0.20134114 0.03264586 0.12289084 0.24698886 -0.2658029
0.30633876 0.2056197 -0.16045542 -0.29324782 0.051448233 0.046917364 -0.045090146 0.2714038
-0.12751336 0.07787203 0.24980532 0.19435239 -0.10091627 0.007938323 0.10142076 0.3332681
-0.11193834 0.06518631 -0.12894349 0.26233494 0.3769843 0.29847193 0.18177915 -0.04992357
0.084960684 -0.029417695 0.21782286 -0.19974867 0.036088713 -0.09741174 -0.1678407 -0.03952658
-0.0035196352 0.096093304 -0.07911785 0.29820603 0.3555661 -0.008788346 0.17225884 0.29627746
0.12740706 -0.26879472 0.3736551 0.042706147 0.31607378 0.08304225 0.14467686 0.20888649
-0.12988734 -0.02271412 0.32222182 0.1148954 -0.08817995 0.1952719 0.14450836 0.2065237
0.17203133 0.04971874 0.2447517 0.06437081 0.10381103 0.10600274 -0.09928605 -0.13854551
-0.13322654 0.014793322 -0.039347697 -0.030703424 -0.0722903 -0.05153554 -0.15963823 0.09536089
0.13609777 -0.2165249 0.21905929 0.32572314 0.436442 0.058150128 0.2196068 -0.19657154
0.10040852 -0.2013799 -0.20460138 -0.19724539 0.26655412 0.24315426 0.043993782 -0.15960142

linear_relu_stack.4.bias f4 [20]
00000000: 8f57 553e e7c0 7e3e 5874 383e 0710 7a3d
00000010: d1f4 793e c9d2 853e c1d1 e13d bade 893d
00000020: 060a 353d 10b5 f23d 59cb 0fbe 9304 873e
00000030: 48f7 993e 0021 7c3d b5c9 833c 16f8 343e
00000040: 0106 743e b806 7e3e 197f 633e 05a6 863e
0.20834182 0.24878274 0.18013132 0.06105044 0.24409796 0.2613738 0.110263355 0.06731935
0.044199012 0.11850941 -0.14042415 0.26370677 0.30071473 0.06155491 0.016087392 0.17672762
0.23830415 0.2480725 0.22216453 0.26298538

linear_relu_stack.7.weight f4 [24, 20]
00000000: d52e d03c 8ee1 213e 298c 01be e865 f2bd
00000010: 2e7f 343e 1d2e 8e3e 9e58 513d 54f6 53be
00000020: fb75 853d caf1 d8bb 31e9 c6be 83f4 29bc
00000030: 0d34 323e 0d60 ef3a e99d 8b3e f33d e13d
00000040: b743 853d 51f8 dfbd a065 43be 8fa0 173e
00000050: 900b 543e a69b abbd 5c86 183d 690a 6dbc
00000060: e398 2dbc b75f abbd c535 863d 73df db3e
00000070: 2395 28be efb7 f83d b376 833d 89c8 d9bd
00000080: 574c 4dbe c3a1 d03d 65ec d2bc 1761 afbd
00000090: 9c75 1c3e 3d81 d73d f538 eabb be43 eb3d
000000a0: 480a fabd f253 a13e e57f 753c 3e31 dcbc
000000b0: a792 ce3e e932 9d3e 0bfb c4bd de36 b33d
000000c0: a38c ad3e 4cd0 9e3d 1cf1 97be ab7f 983d
000000d0: 57e8 b93d a39e f83d 8303 c13d 1cf5 f53d
000000e0: 47ef 52be cb04 073d 51b1 61bd 610d b93e
000000f0: b7f1 bf3e 85e7 24be b284 cc3d a93e 5ebd
00000100: 00b0 93be 0c69 8cbd 5ab9 3d3e 93b1 f1bc
00000110: 121c d2be 9228 d3bd 96b2 953e 5da1 473e
00000120: 289a 933e 13d7 6fba be27 12be dfab c43c
00000130: a543 8d3e 6ab5 573d e68d 113e 8785 ebbd
00000140: 6f27 f2bd a2e2 0dbe c175 ea3c 38fe 3a3e
00000150: 63e1 373d c542 59bd bc5a 2e3e 137b 533c
00000160: a9e6 61bd f7c7 88be 24df 56be 08db 31be
00000170: 883f 42bd 1f0b 373c d0b0 88be 1465 c23d
00000180: 1e22 60bd d657 80be 600f e23b ef66 19be
00000190: 2f09 cb3d 0034 57be 4247 5a3e 8cf9 95bd
000001a0: aaab 9dbe 9cb5 f63d db3d b03e 2959 47bc
000001b0: cf49 99be cb18 32be abe5 723d 1054 363e
000001c0: b436 b53e b054 dc3d a0b4 15bd 521a afbe
000001d0: e9e8 333e 517b 76bc 8368 22bd e392 4dbe
000001e0: 579f ca3c 064e 86be 3ef2 813e 9f41 5ebe
000001f0: 460d 0d3d 8656 343e 7765 3b3e 97e6 033f
00000200: b80b 74be 3193 753d b18a 983e ccb6 80be
00000210: 713b 1a3e 2937 b2bd 6fdb 4ebe 672f 80bd
00000220: 3567 b13d 487d f73d 3482 4f3d 84a2 1cbe
00000230: ee99 633d a58d 8fbe aac5 3b3e e7c3 6f3d
00000240: f1d0 9f3d 0c4a b5bd e5ba 883e 8a6a 3f3d
00000250: 1cee 1cbc 1fff a5bd aaef 573e 26b5 8d3e
00000260: a611 5abd 2a3c bb3d c713 40be fc48 41b9
00000270: 3ffd 283d 268c 463e 4ce5 933e c777 773d
00000280: fcdb 71bc 2c35 2a3e 0e7b 1dbe fe5c 12bd
00000290: e46d 173d c52e 9a3e 1331 6f3d 14f4 b6bd
000002a0: 5b26 4a3e ff09 e73d c46e 69bc bb52 9c3d
000002b0: 591c 2f3d 5f5f aebd 3a97 9b3e a300 8b3e
000002c0: b3d1 38bb 162e 2dbe 6898 3cbe fcc3 a93e
000002d0: 302a 913d 91b2 873c 3c1d 89be 00cd 1cbe
000002e0: c6c2 8a3e cc18 cf3d 39f0 65be ce54 2dbe
000002f0: 159d 2c3e 0aa4 373e a2c3 29be 2a23 90bd
00000300: 9059 fbbc 7914 723d 56de 7b3d 29dc 6d3e
00000310: 734a 23be dfaf 773d c593 5cbe 9730 9a3e
00000320: 71e6 6abe 7ac5 babd 2837 9bbd b56b 54be
00000330: 750d 8dbd c55b a5be 9840 8cbe dc64 7b3b
00000340: f281 8abd 9795 063d 69d9 04be d9f5 a53d
00000350: 77d1 bf3d 5b21 98be bcdf 95be 8c98 833e
00000360: 8872 003e 3921 56bc e594 8abd b6a2 98bd
00000370: d8fd d23d 55e3 e83d 51c2 af3e 3d8e 313e
00000380: 8e6a 9bbd f59b 093d 538d 703e 3167 623e
00000390: 6913 ecbd d2f9 edbd e76e 903e 0e6b 18be
000003a0: 496e 083a 62d8 983e 6cc5 a3bd 0df9 673d
000003b0: 3463 c13e 30c4 003e ed87 923e d183 64bd
000003c0: b32e 5b3e 0fa6 3bbe 2f1a 8f3e 32af c7bc
000003d0: 7c23 60be 20a3 d73c 7ace a6bd e410 e03d
000003e0: e5ce 4a3d 4e29 0fbe 9c4d 973e eb83 263d
000003f0: 1381 503d 3ea8 793e c77c 44bc ffb0 42be
0.025412956 0.15808699 -0.12651123 -0.11835843 0.1762664 0.27769557 0.051109903 -0.20699435
0.065166436 -0.0066206204 -0.38849786 -0.010373238 0.17402668 0.0018262878 0.27268913 0.10998144
0.06507056 -0.109360345 -0.19081736 0.14807342 0.20707536 -0.08379297 0.03723751 -0.014467814
-0.010595533 -0.083678655 0.065532245 0.42943916 -0.16463141 0.121444575 0.064191245 -0.10633952
-0.20048653 0.101871036 -0.025747487 -0.0856344 0.1527924 0.10522697 -0.007147903 0.1148753
-0.12208992 0.31509358 0.014984106 -0.02687895 0.40346262 0.30702904 -0.09618195 0.087506995
0.3389636 0.07754573 -0.2967614 0.07446226 0.090775184 0.121396326 0.09424498 0.120096415
-0.2059909 0.032963555 -0.055100743 0.3614302 0.374891 -0.16103943 0.09986247 -0.054258976
-0.28845215 -0.068559736 0.18527737 -0.02950362 -0.4103704 -0.103104725 0.29237813 0.19495149
0.2882855 -0.0009149175 -0.14272973 0.024007736 0.2759067 0.052663244 0.14214286 -0.11500078
-0.118239276 -0.13855985 0.028620603 0.1826104 0.04489268 -0.053042192 0.170268 0.012907761
-0.055151615 -0.2671506 -0.20983559 -0.1736871 -0.04742387 0.011172085 -0.26697397 0.09491935
-0.054720037 -0.25067014 0.0068988055 -0.14980672 0.09913861 -0.2101593 0.21316245 -0.07322988
-0.30795032 0.12046358 0.34422192 -0.0121672535 -0.29939124 -0.1739227 0.05930106 0.17805505
0.35393298 0.1075834 -0.03654921 -0.34199768 0.17569317 -0.015044049 -0.03965045 -0.20075564
0.024734182 -0.26231402 0.2538013 -0.2170472 0.034436487 0.17611131 0.18300425 0.5152373
-0.23832595 0.059954826 0.29793313 -0.25139463 0.15061738 -0.08701927 -0.20200895 -0.06259041
0.08662263 0.120844424 0.05066128 -0.1529637 0.05556672 -0.28037754 0.18337122 0.058536436
0.07803524 -0.08852014 0.2670509 0.046732463 -0.009578254 -0.08105301 0.21087518 0.27677268
-0.053239487 0.09142335 -0.18757544 -0.00018433103 0.04125714 0.193894 0.28885877 0.060416963
-0.014761921 0.16621846 -0.15378973 -0.035733216 0.036970034 0.30113807 0.05839641 -0.08933273
0.19741194 0.112812035 -0.0142476 0.07632967 0.042751644 -0.08514284 0.30388814 0.27148923
-0.0028201162 -0.16912112 -0.18417513 0.33157337 0.07088125 0.01656464 -0.26780117 -0.15312576
0.27101725 0.101121515 -0.22454919 -0.16926882 0.16856797 0.1793367 -0.16578534 -0.07037957
-0.030682355 0.059101555 0.061491333 0.23228516 -0.15946369 0.060470458 -0.21540745 0.30115196
-0.22939469 -0.09119697 -0.075788796 -0.20744212 -0.06887332 -0.32296577 -0.2739303 0.0038359677
-0.06763066 0.032857504 -0.1297356 0.08103532 0.09366124 -0.29712948 -0.29272258 0.25702322
0.1254369 -0.013069444 -0.06766681 -0.0745291 0.10302323 0.11371485 0.3432794 0.17339416
-0.07588683 0.033595998 0.23491411 0.22109677 -0.1152714 -0.11619915 0.28209612 -0.14884588
0.0005204422 0.29852587 -0.079966396 0.056633998 0.37770998 0.1257484 0.28619328 -0.055789772
0.21404533 -0.18325065 0.27949664 -0.024375532 -0.21888536 0.026322901 -0.08144851 0.10940722
0.049513716 -0.139806 0.295514 0.04065315 0.050904345 0.24380586 -0.01199264 -0.19012831

linear_relu_stack.7.bias f4 [24]
00000000: 0797 d53d 2eb4 60be e44c ecbc 24d3 173e
00000010: 05e0 35be e1d5 9e3e b9b9 2dbe ac86 1bbc
00000020: 3658 41be 5b74 983e bb4e 813c e602 8ebe
00000030: 7d10 49be 0c62 243e e52c 943e 65e4 d63c
00000040: b213 d4bc efbe 773e 51a5 773e cca7 973e
00000050: 31d3 4a3e 4579 1bbe f560 903d f604 72bd
0.10429197 -0.21943733 -0.028845258 0.14826638 -0.17761238 0.31022552 -0.16965379 -0.0094925575
-0.18881306 0.29776272 0.015784612 -0.27736586 -0.19635196 0.16053027 0.28940502 0.026231954
-0.025888298 0.24193929 0.24184157 0.29620206 0.19807126 -0.1518298 0.07049743 -0.059086762

linear_relu_stack.9.weight f4 [1, 24]
00000000: f68c bb3e b56f 02be 2489 9f3e 06b4 97be
00000010: f887 373b 1b47 91be c96d f0bd 6a5c e1bd
00000020: 53cb 713e 48d0 0b3e 525e f63b d7aa a5be
00000030: 56eb 2cbe 8404 90be a76f 2ebe 7a2f a63d
00000040: f2ab 3c3e 5abf 77be 2b14 973e ac2f a9be
00000050: 5c7e a3be 62d6 8bbe fedf 213e f6d2 b23e
0.36630982 -0.12737925 0.31159317 -0.29629534 0.0028004628 -0.28374562 -0.1173969 -0.11003955
0.23612718 0.13653672 0.007518568 -0.32356903 -0.16886649 -0.28128445 -0.1703478 0.08114524
0.18424967 -0.24194089 0.29507574 -0.33044183 -0.31932342 -0.27312 0.15808102 0.34926575
